OV0002. MINST Detection/MINST.tflite (tflite, 119056 bytes, 4 tensors)

sequential/conv2d/Conv2D/ReadVariableOp i1 [32, 3, 3, 3]
00000000: 3869 37ab 98ba 0e95 0351 2842 051d 9f12
00000010: dd37 bbfe 9281 c7b1 25bc f611 7f5d 303f
00000020: 25f1 644c 301d 3d01 13df 536b d31b e650
00000030: e73c 0e0f 0931 13e6 f3d7 e00e 6517 33b0
00000040: 2e21 5e7f 4b7d 58d5 a8e4 b888 edd1 d6b3
00000050: 12ed f1c1 4b19 ed64 6f55 92e1 262e 3bea
00000060: 337f 64bd 1286 f5b4 edb4 c0a1 caf1 a814
00000070: 2e4f 0123 7f86 dbd9 bf1b e50c f6f5 c419
00000080: 1cc6 1606 d3ee b6fe 2720 0b3b 3f1c 0cb5
00000090: 357f 2c15 a9ce cab9 fa06 c5e5 06b0 a31a
000000a0: 0cd1 139f aca9 b6d2 b2de b003 bac3 3fc5
000000b0: 0d12 dd1e 4f4c 6320 7f56 6054 f2ac f514
000000c0: d2e5 f5b3 f03b e5d5 bdaf 0413 6656 008e
000000d0: 81c2 3408 63fc 3b76 caa0 81a8 a4ad 1b77
000000e0: 5323 0bbb 928b e1cd c5e7 7444 0f2a f5e4
000000f0: f0c6 a800 d236 b383 8d7f 306c d8cd 0f90
56 105 55 -85 -104 -70 14 -107
3 81 40 66 5 29 -97 18
-35 55 -69 -2 -110 -127 -57 -79
37 -68 -10 17 127 93 48 63
37 -15 100 76 48 29 61 1
19 -33 83 107 -45 27 -26 80
-25 60 14 15 9 49 19 -26
-13 -41 -32 14 101 23 51 -80
46 33 94 127 75 125 88 -43
-88 -28 -72 -120 -19 -47 -42 -77
18 -19 -15 -63 75 25 -19 100
111 85 -110 -31 38 46 59 -22
51 127 100 -67 18 -122 -11 -76
-19 -76 -64 -95 -54 -15 -88 20
46 79 1 35 127 -122 -37 -39
-65 27 -27 12 -10 -11 -60 25
28 -58 22 6 -45 -18 -74 -2
39 32 11 59 63 28 12 -75
53 127 44 21 -87 -50 -54 -71
-6 6 -59 -27 6 -80 -93 26
12 -47 19 -97 -84 -87 -74 -46
-78 -34 -80 3 -70 -61 63 -59
13 18 -35 30 79 76 99 32
127 86 96 84 -14 -84 -11 20
-46 -27 -11 -77 -16 59 -27 -43
-67 -81 4 19 102 86 0 -114
-127 -62 52 8 99 -4 59 118
-54 -96 -127 -88 -92 -83 27 119
83 35 11 -69 -110 -117 -31 -51
-59 -25 116 68 15 42 -11 -28
-16 -58 -88 0 -46 54 -77 -125
-115 127 48 108 -40 -51 15 -112

sequential/conv2d_1/Conv2D/ReadVariableOp i1 [64, 3, 3, 32]
00000000: fef2 0deb cfc4 cc14 e3f3 d8fe bbe0 dcfb
00000010: 1612 e9dd b2b8 0300 02bf f4d8 b80a 01f5
00000020: e308 f838 06d2 ace8 e20b 1f18 1813 d3ce
00000030: dc14 f730 2b27 e5eb e8cf fadc f6fe 01d4
00000040: fdfb 2d3d f400 046b c824 e048 f220 ed20
00000050: 0613 3870 502f e8ed f905 ee09 2ae7 d411
00000060: f919 ce1a f5ad a019 09e9 dc0a c0be 060f
00000070: f117 e925 e5c6 0de3 df00 e4a9 d2f9 12e1
00000080: 21f7 12ea e7e9 91ed 0744 ebfb 2c02 d90f
00000090: 10f5 ee30 3b18 d5eb 2320 ddde dce6 05ee
000000a0: ea15 ee47 040b 1121 0516 1f0e 09fc e1e3
000000b0: 0f13 2541 5217 dcf6 38ec 13ec 12df eb18
000000c0: c41d fb2a c5fc 902c eb0d 02da bd06 c115
000000d0: 0402 ea1a 120e 0e09 0be3 d68d 0205 00d3
000000e0: 0ae4 d9c0 1be0 8109 160e eff4 e5f5 f305
000000f0: ffdb bb3b 1705 e8f2 11e5 dab6 bedd f1e0
-2 -14 13 -21 -49 -60 -52 20
-29 -13 -40 -2 -69 -32 -36 -5
22 18 -23 -35 -78 -72 3 0
2 -65 -12 -40 -72 10 1 -11
-29 8 -8 56 6 -46 -84 -24
-30 11 31 24 24 19 -45 -50
-36 20 -9 48 43 39 -27 -21
-24 -49 -6 -36 -10 -2 1 -44
-3 -5 45 61 -12 0 4 107
-56 36 -32 72 -14 32 -19 32
6 19 56 112 80 47 -24 -19
-7 5 -18 9 42 -25 -44 17
-7 25 -50 26 -11 -83 -96 25
9 -23 -36 10 -64 -66 6 15
-15 23 -23 37 -27 -58 13 -29
-33 0 -28 -87 -46 -7 18 -31
33 -9 18 -22 -25 -23 -111 -19
7 68 -21 -5 44 2 -39 15
16 -11 -18 48 59 24 -43 -21
35 32 -35 -34 -36 -26 5 -18
-22 21 -18 71 4 11 17 33
5 22 31 14 9 -4 -31 -29
15 19 37 65 82 23 -36 -10
56 -20 19 -20 18 -33 -21 24
-60 29 -5 42 -59 -4 -112 44
-21 13 2 -38 -67 6 -63 21
4 2 -22 26 18 14 14 9
11 -29 -42 -115 2 5 0 -45
10 -28 -39 -64 27 -32 -127 9
22 14 -17 -12 -27 -11 -13 5
-1 -37 -69 59 23 5 -24 -14
17 -27 -38 -74 -66 -35 -15 -32

sequential/conv2d_2/Conv2D/ReadVariableOp i1 [128, 3, 3, 64]
00000000: e7ee 09ef e6dc 286d 91d0 00f0 0de2 cd0d
00000010: 1e22 12c7 f5ef cdd9 23cd 0f03 19d1 0719
00000020: 3fdd 0300 fdd1 da37 e31b 13e8 052f f61a
00000030: 0f41 e707 112d e60c 941a f6fb 2efb 21ec
00000040: f9ae 070c dbd9 f6c5 01e7 d7fe 340a c0f2
00000050: d8da f5f5 15d6 b920 e8e5 05f0 21f1 e505
00000060: 0dc8 1029 f0dd de06 c7df 09de 461b e714
00000070: f5e7 3509 fd18 0ae9 c0bf 1a1c 19fb c7f2
00000080: 1e33 cc19 aa3d f6e7 fdd2 0a07 f315 1239
00000090: 1de9 f026 e0c5 d3e7 ddcc 26f4 39cd df05
000000a0: ecc2 1fc7 e3ff e5c5 dffa ee08 f413 332a
000000b0: c0cb 0119 df60 fef2 da46 e9e2 061f 0631
000000c0: d12d 0d1c fcfb 3e02 a3e7 110d 1410 d6c9
000000d0: fd21 fc2b fdc5 c32e ec1c b32a 1de6 e41e
000000e0: 1215 e7df 1a15 171f fd04 e8f3 fff2 03c7
000000f0: 1219 d8d8 a5e9 0f06 b31d dc00 e5e4 16e6
-25 -18 9 -17 -26 -36 40 109
-111 -48 0 -16 13 -30 -51 13
30 34 18 -57 -11 -17 -51 -39
35 -51 15 3 25 -47 7 25
63 -35 3 0 -3 -47 -38 55
-29 27 19 -24 5 47 -10 26
15 65 -25 7 17 45 -26 12
-108 26 -10 -5 46 -5 33 -20
-7 -82 7 12 -37 -39 -10 -59
1 -25 -41 -2 52 10 -64 -14
-40 -38 -11 -11 21 -42 -71 32
-24 -27 5 -16 33 -15 -27 5
13 -56 16 41 -16 -35 -34 6
-57 -33 9 -34 70 27 -25 20
-11 -25 53 9 -3 24 10 -23
-64 -65 26 28 25 -5 -57 -14
30 51 -52 25 -86 61 -10 -25
-3 -46 10 7 -13 21 18 57
29 -23 -16 38 -32 -59 -45 -25
-35 -52 38 -12 57 -51 -33 5
-20 -62 31 -57 -29 -1 -27 -59
-33 -6 -18 8 -12 19 51 42
-64 -53 1 25 -33 96 -2 -14
-38 70 -23 -30 6 31 6 49
-47 45 13 28 -4 -5 62 2
-93 -25 17 13 20 16 -42 -55
-3 33 -4 43 -3 -59 -61 46
-20 28 -77 42 29 -26 -28 30
18 21 -25 -33 26 21 23 31
-3 4 -24 -13 -1 -14 3 -57
18 25 -40 -40 -91 -23 15 6
-77 29 -36 0 -27 -28 22 -26

sequential/dense/MatMul/ReadVariableOp/transpose i1 [8, 2048] scale=0.0048403475 zero_point=0
00000000: f4f9 f400 fce8 f60b faf3 e4e3 f108 eef8
00000010: ff0f f200 f7fd e943 f808 eefb fd07 f8fa
00000020: f805 f500 01f9 03f9 f900 f8ee 01ed fdf0
00000030: fdf8 0806 0cfa 0003 06e6 ff10 ff0f 020c
00000040: f2fd fffd f931 f107 fff9 f60a f503 1eff
00000050: f4f1 01fc 07eb 0401 fcfc f301 0701 fbfa
00000060: fe02 efea 1ef4 f8fa 0dfa fcfa f1e8 0105
00000070: 08ef f8ef f5f7 01eb f1ff f904 f5ea f9fd
00000080: fbf9 f1fc f902 f60c fd1d 0bfd f307 06f6
00000090: ff13 fcf1 fc00 0027 fd05 05f9 f4f8 f8f9
000000a0: ed13 e505 f306 0707 fffd faf5 070f 0205
000000b0: ecec f5fa 030a 04f9 0d17 f7fc 0f05 0700
000000c0: 03db fb0f 0401 0306 0b08 01fb 170d 14ea
000000d0: 00f2 0116 fbf7 0def 08fa 0f03 fcf8 02fb
000000e0: f1f4 1701 0a03 e509 ff02 06e1 0406 e6ff
000000f0: 09f2 06e6 010c f707 eb10 0cf5 f30d 0cf6
-0.058084168 -0.03388243 -0.058084168 0.0 -0.01936139 -0.116168335 -0.048403475 0.053243823
-0.029042084 -0.06292452 -0.13552973 -0.14037007 -0.072605215 0.03872278 -0.087126255 -0.03872278
-0.0048403475 0.072605215 -0.06776486 0.0 -0.043563128 -0.014521042 -0.11132799 0.32430327
-0.03872278 0.03872278 -0.087126255 -0.024201738 -0.014521042 0.03388243 -0.03872278 -0.029042084
-0.03872278 0.024201738 -0.053243823 0.0 0.0048403475 -0.03388243 0.014521042 -0.03388243
-0.03388243 0.0 -0.03872278 -0.087126255 0.0048403475 -0.0919666 -0.014521042 -0.07744556
-0.014521042 -0.03872278 0.03872278 0.029042084 0.058084168 -0.029042084 0.0 0.014521042
0.029042084 -0.12584904 -0.0048403475 0.07744556 -0.0048403475 0.072605215 0.009680695 0.058084168
-0.06776486 -0.014521042 -0.0048403475 -0.014521042 -0.03388243 0.23717703 -0.072605215 0.03388243
-0.0048403475 -0.03388243 -0.048403475 0.048403475 -0.053243823 0.014521042 0.14521043 -0.0048403475
-0.058084168 -0.072605215 0.0048403475 -0.01936139 0.03388243 -0.101647295 0.01936139 0.0048403475
-0.01936139 -0.01936139 -0.06292452 0.0048403475 0.03388243 0.0048403475 -0.024201738 -0.029042084
-0.009680695 0.009680695 -0.0822859 -0.10648765 0.14521043 -0.058084168 -0.03872278 -0.029042084
0.06292452 -0.029042084 -0.01936139 -0.029042084 -0.072605215 -0.116168335 0.0048403475 0.024201738
0.03872278 -0.0822859 -0.03872278 -0.0822859 -0.053243823 -0.043563128 0.0048403475 -0.101647295
-0.072605215 -0.0048403475 -0.03388243 0.01936139 -0.053243823 -0.10648765 -0.03388243 -0.014521042
-0.024201738 -0.03388243 -0.072605215 -0.01936139 -0.03388243 0.009680695 -0.048403475 0.058084168
-0.014521042 0.14037007 0.053243823 -0.014521042 -0.06292452 0.03388243 0.029042084 -0.048403475
-0.0048403475 0.0919666 -0.01936139 -0.072605215 -0.01936139 0.0 0.0 0.18877356
-0.014521042 0.024201738 0.024201738 -0.03388243 -0.058084168 -0.03872278 -0.03872278 -0.03388243
-0.0919666 0.0919666 -0.13068938 0.024201738 -0.06292452 0.029042084 0.03388243 0.03388243
-0.0048403475 -0.014521042 -0.029042084 -0.053243823 0.03388243 0.072605215 0.009680695 0.024201738
-0.09680695 -0.09680695 -0.053243823 -0.029042084 0.014521042 0.048403475 0.01936139 -0.03388243
0.06292452 0.11132799 -0.043563128 -0.01936139 0.072605215 0.024201738 0.03388243 0.0
0.014521042 -0.17909285 -0.024201738 0.072605215 0.01936139 0.0048403475 0.014521042 0.029042084
0.053243823 0.03872278 0.0048403475 -0.024201738 0.11132799 0.06292452 0.09680695 -0.10648765
0.0 -0.06776486 0.0048403475 0.10648765 -0.024201738 -0.043563128 0.06292452 -0.0822859
0.03872278 -0.029042084 0.072605215 0.014521042 -0.01936139 -0.03872278 0.009680695 -0.024201738
-0.072605215 -0.058084168 0.11132799 0.0048403475 0.048403475 0.014521042 -0.13068938 0.043563128
-0.0048403475 0.009680695 0.029042084 -0.15005077 0.01936139 0.029042084 -0.12584904 -0.0048403475
0.043563128 -0.06776486 0.029042084 -0.12584904 0.0048403475 0.058084168 -0.043563128 0.03388243
-0.101647295 0.07744556 0.058084168 -0.053243823 -0.06292452 0.06292452 0.058084168 -0.048403475
